algorithm/models/c_model.pth (torch, 3215 bytes, 5 tensors)

conv1.weight f4 [4, 2, 10]
000000 71 36 7b be fb dc 25 be 46 89 05 be a7 3a eb bd
       -0.24532486 -0.16197579 -0.13040647 -0.114857964
000010 05 3b 7f 3e f8 92 7b 3d 4b 42 ce be 1b 52 f5 3d
       0.24924858 0.061419457 -0.40284953 0.11978551
000020 bf 22 a7 3d 4e 2b 19 be 91 07 9d bc ce 68 45 3e
       0.08160924 -0.14957926 -0.019168647 0.19278261
000030 23 05 76 be df af d4 3d 85 72 08 3e dd 8d 98 be
       -0.24025397 0.10385107 0.13324936 -0.29795733
000040 6d a7 1d 3e 48 29 3f 3d 1b 4a e3 3b c6 74 06 3e
       0.15395899 0.04667023 0.0069363243 0.13130483
000050 c9 51 54 bd fb 5d 3c be fa d8 81 3e a4 20 58 be
       -0.05183581 -0.18395226 0.25360852 -0.21106201
000060 7c 46 39 be f1 0c 60 3c 9b b0 3d be 07 3c fc bd
       -0.18093294 0.0136749605 -0.18524401 -0.12316137
000070 46 09 ae 3d 48 e8 69 be 37 61 81 3e dd 5c da 3d
       0.084978625 -0.22842515 0.25269482 0.106622435
000080 38 c6 c2 be eb 71 2b bc ed 74 94 3c 0f 23 cc 3b
       -0.38041854 -0.010464172 0.01812216 0.0062297652
000090 2a da 41 3e c5 01 47 3e 75 02 59 bc cb c0 49 3e
       0.18930879 0.19434269 -0.013245215 0.19702451
0000a0 b1 1d 7d 3e 73 21 c6 be 5c 0d 62 bc 1a 3e 43 be
       0.24718358 -0.38697395 -0.01379713 -0.19066659
0000b0 8b 38 90 bb 63 6d 2e 3d 2f 74 bd be c3 21 03 bd
       -0.0044012717 0.042584788 -0.37002704 -0.03201462
0000c0 0d e3 5a 3e b7 fd 3c be 8d 74 44 be a9 13 44 bd
       0.21375675 -0.1845616 -0.19185086 -0.047870312
0000d0 c0 31 7f bc 13 24 41 3e cd c7 38 3d a2 fe b7 be
       -0.015575826 0.18861417 0.04511242 -0.35936457
0000e0 7c a4 7e 3e 49 65 cb bd c0 93 79 be 4b 0e 8f 3e
       0.24867433 -0.09931428 -0.24372768 0.27940592
0000f0 f5 50 6f 3e 84 84 a6 bd 19 fb b5 bc 61 5f a5 3e
       0.23370726 -0.08130744 -0.02221446 0.3229933
000100 85 5b 5e be 47 ee 7b bd 5b 67 26 3d e2 e0 9f be
       -0.217146 -0.061506536 0.04062591 -0.3122626
000110 d5 81 98 3e e2 a1 1c be 6b 4a 3b be 8d 3d 6d 3e
       0.29786554 -0.15296128 -0.18290107 0.23168011
000120 a3 3b 84 3e 83 05 5f be 63 d2 ac 3e d4 31 9f bd
       0.2582675 -0.21779446 0.33754262 -0.07773176
000130 83 1f 9a be 93 9c b8 bd 07 6a 96 be c1 dc 43 3e
       -0.30102167 -0.09014239 -0.29377767 0.1912718

conv1.bias f4 [4]
000000 9b 14 b2 3d f3 1b 6a be b6 3f 4f be f4 bb 0d 3e
       0.086953364 -0.22862224 -0.20239148 0.1384123

conv2.weight f4 [2, 4, 5]
000000 a5 b3 04 be 46 b0 47 3e a7 5d 16 bd e9 e2 d8 bd
       -0.12959154 0.19500837 -0.036710408 -0.10590155
000010 42 76 b3 be f4 0d da 3e d3 c6 da bd 7a f6 9e bd
       -0.3505116 0.4258877 -0.10682454 -0.077618554
000020 c6 76 8f 3e 71 ba 01 3e f9 59 ba bd 62 28 0c 3e
       0.28020304 0.12668778 -0.09099192 0.1368728
000030 0e 43 2e bd 07 dc 4c 3e 2e 09 0c be 6d ce 86 3e
       -0.042544417 0.20005809 -0.13675377 0.26329365
000040 af f8 34 3e 8b ac a3 3d f3 e9 3c 3c 7c 90 93 be
       0.1767299 0.07991894 0.011530387 -0.2882117
000050 de ff 26 be 11 2c 5f 3e 95 e5 00 be bc fb 03 3e
       -0.16308543 0.21794154 -0.12587579 0.12888998
000060 35 e0 4f 3e 5f 8a f4 bd b9 66 b5 3e 4c db 26 be
       0.20300372 -0.11940455 0.35429934 -0.16294593
000070 06 ba 6c bd 38 68 a6 3e 89 9f 9e bd 32 96 2d 3e
       -0.057794593 0.32501388 -0.07745273 0.16951826
000080 15 34 21 be 0f 7b db 3e d6 8f b5 3e bf aa c4 3e
       -0.15742524 0.42867324 0.354613 0.3841152
000090 14 bf bc bc 58 3d 9e be c0 16 ab 3e 98 9e 7a be
       -0.023040332 -0.30906177 0.33415794 -0.24474561

conv2.bias f4 [2]
000000 59 b3 9a be be 45 d1 be
       -0.30214956 -0.40873522

fc1.weight f4 [1, 38]
000000 e8 74 93 3e bd ea 61 3e ba 8e 6d 3e 7a 64 ba 3c
       0.2880013 0.22062202 0.23198977 0.02275299
000010 e6 bb ef 3d 21 78 9e bd 09 f9 3a 3e 3f 53 93 be
       0.11705761 -0.077377565 0.18259062 -0.2877445
000020 0d 68 52 3c 1b d2 bd bd d3 79 ff bc a5 d5 45 3e
       0.01284219 -0.0926859 -0.03118602 0.1931978
000030 2b 2b 37 3e d6 d7 26 3e af fc 84 3e 7d 2e ae 3e
       0.17887561 0.16293272 0.25974032 0.34019843
000040 5c 26 80 3e 3f bb a7 ba f9 2c 09 be dd 70 10 3e
       0.25029266 -0.0012796893 -0.13396062 0.14105554
000050 ae 1d 60 3e 79 79 44 3e 0a 5f 13 3e fc fa c3 3e
       0.21886322 0.19186963 0.14391723 0.38277423
000060 d9 87 4d be 06 05 39 3e 9a 60 e6 3e e8 33 6f bd
       -0.20071353 0.18068323 0.44995576 -0.05839911
000070 99 7b 5a 3e e1 f8 b4 3e b8 19 09 bd 60 28 82 3e
       0.21336211 0.3534613 -0.033471793 0.2542143
000080 4e 43 55 3e d5 65 42 3e 1d b1 32 3e 5a 9d a0 3e
       0.20826456 0.18984158 0.17450376 0.3137005
000090 a7 d6 12 3e fa 81 09 3f
       0.14339696 0.53713953
