algorithm/models/f_model.pth (torch, 36235 bytes, 6 tensors)

conv1.weight f4 [5, 1, 10]
000000 47 de c5 bd 3e 73 08 3e 2e 99 f1 be 1d 9e f2 be
       -0.09661537 0.13325211 -0.4718718 -0.47386256
000010 20 d9 bf be 84 19 99 bd ce 63 85 be 0c b5 0f 3e
       -0.3747034 -0.0747557 -0.26052707 0.14033908
000020 6a e0 7f be bc 48 89 bd 39 f2 27 be 6d 01 25 be
       -0.24987951 -0.06703326 -0.16400994 -0.16113825
000030 9b 81 fb be ec 0b d4 be b5 63 b4 be 0b ac 3d be
       -0.4912232 -0.41415346 -0.3523232 -0.1852266
000040 98 41 52 bd 2e 45 74 3d ea 3b cf be 1d 1d 93 be
       -0.051332086 0.059636287 -0.40475398 -0.2873315
000050 e4 ef 51 3e 44 f0 df 3e 2f e2 34 3e 04 6a 03 3f
       0.20501667 0.43737996 0.17664407 0.5133364
000060 6a e3 58 3e c5 94 85 3e fb fc ed 3e f1 2a 38 be
       0.21180502 0.26090065 0.4648207 -0.17985131
000070 4c 3c 00 be e0 73 4b bd 4c a2 6a be df 1d a1 3d
       -0.12523001 -0.049671054 -0.22913474 0.078670256
000080 96 90 f6 be f7 64 e8 be a8 63 02 bf 0a 54 0a bf
       -0.48157185 -0.4538953 -0.50933313 -0.54034483
000090 af 47 c3 be 17 13 24 3e cd d5 a1 3d bc e0 18 3e
       -0.38140628 0.16022907 0.079021074 0.1492948
0000a0 35 c1 ba bd 9c fd c0 be 96 ca 4b be f2 57 10 bf
       -0.091188826 -0.3769349 -0.19901499 -0.56384194
0000b0 4e 39 fc be 54 09 cf be f9 e8 57 3d 3d e5 d6 3d
       -0.4926247 -0.40436804 0.052712414 0.104929425
0000c0 3e a4 52 be cc 99 71 bc
       -0.20570466 -0.014746141

conv1.bias f4 [5]
000000 32 fa e6 3e 32 62 16 3f 88 f7 da 3e 7d 4d 70 be
       0.4511276 0.58743584 0.42766976 -0.2346706
000010 4b 88 bd 3e
       0.37018046

conv2.weight f4 [5, 5, 5]
000000 6a ef ae be 97 5f 73 be b8 e5 ea be 5f 2b e6 be
       -0.34167033 -0.23766933 -0.45878386 -0.44954965
000010 2d b6 cf be 2f 1b 05 be 86 35 37 be 7b f2 c9 be
       -0.40568677 -0.12998651 -0.17891511 -0.3944281
000020 77 4c 61 be 1e 72 2c be 63 c1 f6 3d 81 35 3e 3e
       -0.22001825 -0.16840407 0.12048604 0.18575098
000030 46 30 83 3e 2c c0 ba 3e 80 14 dc 3e 90 d9 af be
       0.25622767 0.3647474 0.4298439 -0.34345675
000040 e7 dd 9a be c6 61 2f be 4b 31 c4 bd 20 4c a0 bd
       -0.30247423 -0.17127141 -0.095797144 -0.0782702
000050 04 c2 f3 bb c6 03 41 be 08 e7 d5 be dc c7 68 be
       -0.0074389 -0.18849096 -0.41777825 -0.2273249
000060 ac c5 ba be b0 20 c1 be 2b 89 c9 bc 0e 72 82 bd
       -0.36478937 -0.3772025 -0.02460154 -0.063694105
000070 e8 41 d2 be 00 1b 21 be 7b 06 78 be 47 7f 84 be
       -0.41065907 -0.15732956 -0.24221222 -0.25878355
000080 63 91 a6 be 0d a3 1a be e8 74 a8 be 6a 74 81 3e
       -0.32532796 -0.15101261 -0.32901692 0.2528413
000090 d7 e2 96 3e 12 18 ba 3e db f5 99 3e 70 5d b5 3b
       0.2946994 0.3634649 0.30070385 0.0055348203
0000a0 58 52 ad be 87 7b 00 be 68 12 3d be 44 55 c1 be
       -0.33851886 -0.12547122 -0.18464053 -0.37760365
0000b0 b0 36 a1 be 7c 33 d5 3b 6a 16 93 bd 6d 7c 9a be
       -0.31487036 0.0065063816 -0.071820095 -0.30173054
0000c0 bd 31 83 be 36 4f bb be c7 0d 9b bd dc 90 8c be
       -0.25623885 -0.3658387 -0.07570987 -0.2745427
0000d0 6f fc 9b be 1e f4 27 be 29 2a d0 bd a8 5c 3e be
       -0.3046603 -0.16401717 -0.101642914 -0.18590033
0000e0 12 03 ea bc e4 f1 93 be 1a eb 24 3c 3d 04 93 bc
       -0.028565917 -0.28895485 0.010065818 -0.017946357
0000f0 d9 ce 28 3d cb c8 4c 3e e4 2f 94 3e c2 6a a5 3e
       0.04121289 0.19998471 0.28942788 0.32308012
000100 3a d9 ac 3e a9 c0 12 be f2 45 85 be 45 a7 c8 be
       0.3375948 -0.14331307 -0.26029927 -0.39190117
000110 be 43 4b be 49 04 eb be d3 1f 83 be 1c 75 78 be
       -0.1985006 -0.45901707 -0.25610217 -0.24263424
000120 54 a3 a3 be e6 4d 90 be 00 b3 b5 be 82 aa 30 3d
       -0.31960547 -0.28184432 -0.3548813 0.04313136
000130 9e 5e f0 3d ef c9 3e bd 1e ea d6 3d 3a 33 9a 3e
       0.11736797 -0.046579298 0.10493873 0.30117208
000140 55 c3 04 3d 2a 73 43 3d a9 a3 14 3d 7d 43 ff 3d
       0.032412846 0.04771725 0.03628889 0.12464044
000150 99 21 82 3e ec de e8 3e 23 2e ce 3e 9a 11 ef 3e
       0.25416258 0.45482576 0.40269575 0.46693116
000160 37 69 85 3e b3 ad a6 3d 12 0a b1 be 12 c0 fd bd
       0.26056835 0.08138599 -0.34577996 -0.1239015
000170 c9 91 81 be 8f 39 ab be c9 aa bb be d5 4c 92 be
       -0.25306538 -0.3344235 -0.36653736 -0.28574243
000180 64 0d 8f be 1b 26 10 be a2 fa 10 3d b6 19 99 3d
       -0.27939904 -0.14077036 0.035395272 0.07475607
000190 8a 85 09 bf 06 27 82 be 2d c6 0f bf 19 1e eb be
       -0.5371939 -0.25420398 -0.5616177 -0.459214
0001a0 91 9a ff be 89 52 b1 be 2c 01 be be be e7 06 bf
       -0.49922612 -0.34633282 -0.3711027 -0.5269736
0001b0 0d c0 06 bf 2f f6 c3 be ba ee e0 3d 43 7b 0f 3d
       -0.52636796 -0.3827376 0.109830335 0.03502966
0001c0 39 bd 5d 3e f9 fc 02 bd 73 19 0e 3e 1c f6 27 3c
       0.21654214 -0.031979535 0.13876896 0.010251548
0001d0 2e f4 87 be c5 23 7f bc 97 a9 04 be 45 3b c3 be
       -0.26553482 -0.015572493 -0.12955318 -0.38131157
0001e0 dd e7 e0 bd b0 79 8f be ac 58 b9 be 0f 5b ea bd
       -0.109817244 -0.28022528 -0.36200464 -0.11443149
0001f0 61 b3 dd be
       -0.43300918

conv2.bias f4 [5]
000000 dc 96 2f 3e 67 59 15 3e ea fc cb 3e b0 95 bf 3e
       0.17147392 0.14584886 0.39841396 0.3741889
000010 2f be 58 3c
       0.013228937

fc1.weight f4 [32, 255]
000000 44 59 63 3d 34 e8 5b 3c 1b 6a cd 3b fb a8 23 bd
       0.055505052 0.013422061 0.0062687523 -0.039956074
000010 b6 87 2b 3d c1 6e 5d 3d 4b e1 08 3d 74 8f 8f bd
       0.04187747 0.0540607 0.03341798 -0.070097834
000020 85 11 18 bd b1 9b c0 bd df 3b bb bd 53 95 c2 bd
       -0.037126083 -0.09404696 -0.09142279 -0.095011376
000030 cb 8c 4b bd 3d 72 e0 bd b9 92 9a bd bd cb 7c bd
       -0.049694818 -0.10959289 -0.075475164 -0.061717737
000040 30 d0 e7 bb 12 56 8f bd 3f 34 16 bd 76 da c1 ba
       -0.0070743784 -0.069988385 -0.03667092 -0.0014789838
000050 d7 c2 bb 3d 4e 02 3a 3d 9c 59 00 3e 20 e2 d2 3d
       0.09168022 0.045412354 0.12534183 0.10297036
000060 c3 13 b8 3d 72 3e a1 3d ed bb 66 3d 55 5d 7d 3d
       0.08988144 0.078732386 0.056331564 0.061856586
000070 69 94 d9 3c ba 00 cc 3c 1d 13 81 3c f4 49 6b bd
       0.026560025 0.02490269 0.015756184 -0.057443574
000080 09 39 83 bd 10 ed bc 3a e1 17 de bd 84 ca 86 bd
       -0.06407363 0.0014413912 -0.10844398 -0.065815955
000090 41 d3 02 3c d0 d9 80 bc a4 e0 9d bc 74 94 58 bd
       0.007984937 -0.015728861 -0.019272156 -0.05287595
0000a0 8d d3 51 3d 52 fb af bb 0b a6 10 3d 92 fe 1f 3d
       0.05122714 -0.005370536 0.0353146 0.039061137
0000b0 d1 e6 20 3d b9 84 08 3d 8f 13 69 3d 0e cc 25 bc
       0.039282624 0.0333297 0.05690342 -0.010119451
0000c0 8f 31 d4 3c 49 a7 f1 3b 84 71 80 bd be de 3a 3d
       0.025902538 0.0073746783 -0.062716514 0.04562258
0000d0 d7 99 f7 bc 6f e6 49 bc 8d ce ce 3c 19 53 cb 3c
       -0.030224724 -0.012323006 0.025244975 0.024819897
0000e0 df 80 17 3d 30 37 38 bd 43 5a f2 bc d1 86 55 bb
       0.036988135 -0.044974506 -0.029584056 -0.0032581578
0000f0 86 67 dc bd 08 49 b1 bc 9f fc ff bd b7 b3 95 bd
       -0.10761933 -0.02164127 -0.124993555 -0.073096685
000100 74 a7 b7 bd 53 f8 ef bd 1b 64 83 bd 4d aa f5 bb
       -0.08967486 -0.11717286 -0.06415578 -0.007497108
000110 8a 82 4c bd 0d 48 44 bd 1b 12 49 bc 2d 99 08 bd
       -0.04992918 -0.047920275 -0.012272383 -0.033349205
000120 72 90 95 3d b2 5b ff 3c b8 9e d9 3c b9 e1 c0 3c
       0.073029414 0.031171653 0.02656494 0.023545133
000130 d5 d8 c4 3d 7b 70 a9 3d be 8c b8 3d 9d 47 6c 3d
       0.0961167 0.08273407 0.090112194 0.057685483
000140 fc bd 26 ba 64 79 b8 bc bf 3c a8 b9 ed 3c 82 3c
       -0.00063607073 -0.022518821 -0.00032088716 0.015898192
000150 36 3e 11 bd 75 08 b8 bd ea 77 c1 bd d0 e5 f3 bd
       -0.03545972 -0.08985988 -0.094467 -0.11909068
000160 e8 b3 07 bd 57 8a 88 bd 2e 4b 91 bd 26 a7 87 3d
       -0.033130556 -0.06667011 -0.070944175 0.06623678
000170 16 b3 19 bc 08 12 29 3d f4 fd 9a 3d a3 21 37 3d
       -0.009381076 0.04127696 0.07567969 0.044709813
000180 b4 46 92 bc dd 1a 39 bd b6 b4 1e 3d 7d 40 29 bc
       -0.01785598 -0.045191634 0.038746558 -0.010330317
000190 68 81 08 3d c0 e2 37 bd 45 31 df 3c 76 59 22 bc
       0.033326536 -0.04489398 0.027245173 -0.009909024
0001a0 95 da 8c bb 3a 43 3c bd 86 86 74 3a b6 ac cf bb
       -0.004298518 -0.04596255 0.0009327907 -0.0063377274
0001b0 a9 bc ff bc ff 77 5b bd 34 48 c1 bd 75 cb cb bc
       -0.03121789 -0.053581234 -0.094376 -0.02487729
0001c0 e0 30 fa bd 9a 9d 4f bd 2b f0 de bd 54 69 f1 bd
       -0.122163534 -0.05068741 -0.10885652 -0.11787668
0001d0 9a fa 9a bd f1 e7 df bd f5 b6 3a bd aa 17 fb bc
       -0.0756733 -0.10932911 -0.045584638 -0.030650932
0001e0 73 d6 92 bd 33 c6 27 3c 53 93 22 3d de 2a 69 3d
       -0.07169809 0.0102401255 0.03969128 0.056925647
0001f0 73 a2 da 3c 75 6a 5e bc 95 7e f1 3c 9c b7 68 3d
       0.02668879 -0.013575186 0.029479304 0.05681573
000200 69 72 e9 3b 45 67 3d 3d d0 e3 42 3d 13 8a 30 bd
       0.0071242345 0.046241064 0.04758054 -0.043100428
000210 de dd d0 bc 44 a1 86 bc 9e cb 5d bd a0 9d 8b bd
       -0.02549642 -0.01643432 -0.054149263 -0.06817174
000220 fe 01 95 bd d8 89 07 be 41 c8 94 bd 89 cc c7 bc
       -0.072757706 -0.13236177 -0.07264758 -0.024389522
000230 34 53 85 3b 53 6a 15 3c 2a ff 57 3b 10 7a 33 3d
       0.0040687565 0.009119588 0.0032958486 0.04381758
000240 79 36 bc bb 61 02 d9 bc c6 2e 2a bd ea f6 7c 3d
       -0.0057437983 -0.026490392 -0.041548513 0.061758913
000250 ee e2 9a 3c 8c c2 9d bd 3c e2 a0 bc d8 3b dd ba
       0.018907037 -0.077031225 -0.019639127 -0.0016878797
000260 c1 d2 99 3c 87 d0 26 3d 0b 67 05 3d d3 d4 10 bd
       0.018777253 0.04072621 0.032568973 -0.035359215
000270 78 91 58 bd 99 84 89 3c 6b be 8c bb ac a0 b0 bd
       -0.052873105 0.01678686 -0.0042951605 -0.08624396
000280 e7 a3 d4 b8 90 5f 1c bd c9 2c 1c bd 78 45 fa bd
       -0.00010139477 -0.038177073 -0.038128648 -0.12220281
000290 1e 29 a1 bd 56 cf fc bd 2b 5d 5a bd 96 4e e4 bd
       -0.078691706 -0.12344234 -0.05331151 -0.111478016
0002a0 85 98 8d bd 06 fc a4 bd 86 38 49 bd 25 cd a2 bd
       -0.069138564 -0.08055882 -0.04912617 -0.079492845
0002b0 d8 ab 4b bc 92 bf 8b bd 26 a4 b8 3a 52 b7 34 bd
       -0.012431107 -0.068236485 0.0014087006 -0.04412014
0002c0 36 49 60 bd 4a 31 40 bd b6 59 72 3d 2e 9a 2a 3d
       -0.05475732 -0.046922006 0.059167586 0.041650943
0002d0 51 f9 80 3d cc b3 46 3d 8b fd 88 bd 3d f0 86 bd
       0.06297553 0.04851131 -0.066889845 -0.065887906
0002e0 6a 37 4a bd 17 3c c0 bd 0f eb d7 bc 86 c9 01 be
       -0.049369253 -0.09386461 -0.026357202 -0.12674531
0002f0 67 7a f4 bd 71 44 20 be 5d 72 04 be ec c4 f5 bc
       -0.11937409 -0.15651108 -0.12934251 -0.030001126
000300 14 5b 72 bc 09 7a 97 ba 82 d8 ae 3c 92 65 2d 3d
       -0.0147922225 -0.0011556755 0.021343473 0.042333193
000310 c8 4f 89 bc 63 75 d2 3c 7a 87 48 3d 4c 6e 59 3b
       -0.016761675 0.02569074 0.048957326 0.0033177314
000320 15 fe fc 3c 69 37 77 bc 4d 79 5b bc 4f 7c a0 bd
       0.030882875 -0.015088894 -0.01339562 -0.0783621
000330 49 55 a0 3d 29 7f 47 3d 68 84 a5 3c 7f 40 4d ba
       0.07828767 0.048705254 0.020204738 -0.000782974
000340 25 e6 cd bb 42 ba a3 bc 14 ca 52 3d f9 31 32 3d
       -0.006283539 -0.019986276 0.051462248 0.04350469
000350 f8 f9 bf bc 30 db 7a bd ec a2 14 3c ca 39 f6 bb
       -0.023434624 -0.06124419 0.009072047 -0.007514213
000360 90 38 59 bd 56 b5 b1 bd b6 90 c0 bb ab d4 c9 bc
       -0.053032458 -0.08677165 -0.005876626 -0.02463754
000370 07 16 af bd e9 6a 51 3d bf 75 92 3d ee 78 f6 3c
       -0.08549123 0.051127348 0.071513645 0.03008696
000380 a4 dd cf 3d 37 68 5c 3d 85 d6 a1 3d 7e 93 23 3e
       0.101496965 0.053810325 0.079022445 0.15974233
000390 b7 04 cd 3d 78 9e 51 3d 8d 86 67 3d 7f a7 18 3d
       0.10010665 0.05117652 0.056524802 0.03726911
0003a0 15 b4 d2 3c 8f 0c b1 3c 60 a5 49 3d 15 35 cf bc
       0.025720635 0.021612434 0.04922998 -0.025293866
0003b0 d3 e3 a8 bd b0 63 87 bd d8 e5 3a bd 6b 38 52 bd
       -0.08246579 -0.06610811 -0.045629352 -0.051323336
0003c0 5e af 03 be ac 99 75 bd e6 54 9d bd 9a 12 f7 bc
       -0.12859866 -0.059961006 -0.07682209 -0.030160237
0003d0 6f 78 2a 3d ca 67 9d bb 00 f2 8f 3d 2c ca e8 3d
       0.04161876 -0.0048036324 0.0702858 0.11366686
0003e0 7a 99 45 3d b9 ee 63 bc 8e d0 ca bc 04 e5 4e bc
       0.04824207 -0.013911896 -0.02475765 -0.012627844
0003f0 b1 b0 b2 bd 13 46 00 bc c3 7b b2 bd fb ed 2d be
       -0.087251075 -0.007829207 -0.08715012 -0.16985314

fc1.bias f4 [32]
000000 5e 48 e0 bd 38 c4 23 be 7e a8 c8 bd 3a 9b f0 bd
       -0.10951303 -0.1599282 -0.09797762 -0.11748357
000010 5c 3f 06 be 68 a3 91 3d a6 f9 82 3c 04 6d 82 3e
       -0.13110107 0.071112454 0.015988182 0.25473797
000020 5c 04 77 3e be c7 9a 3e 9c f3 95 3e 10 e4 a3 3d
       0.24122757 0.30230516 0.29287422 0.08002484
000030 67 97 f6 3d cd d6 18 3e 39 91 3a 3d c7 e1 10 be
       0.120405965 0.1492569 0.04554865 -0.14148627
000040 50 70 57 3e 2b 49 ce 3d a2 cb e9 3d 7e 1e 07 3e
       0.21038938 0.100725494 0.11415793 0.13195226
000050 c0 ef 90 3e 22 1a 26 3e 98 d9 69 3e 76 12 a4 3e
       0.28307915 0.16220906 0.22836912 0.32045335
000060 d8 9e 4d 3e 13 51 97 3c 7e 23 d5 ba b8 91 01 bc
       0.20080125 0.018471276 -0.0016261188 -0.007908277
000070 d7 79 72 3e b4 b5 ce bd aa ab 9f bd 43 0b 9b bd
       0.2367929 -0.10093251 -0.07796414 -0.075705074
